Starting to train on entity
Build model...
Model: "sequential"
_________________________________________________________________
Layer (type)                 Output Shape              Param #   
=================================================================
lstm (LSTM)                  (None, 18, 512)           1665024   
_________________________________________________________________
dropout (Dropout)            (None, 18, 512)           0         
_________________________________________________________________
lstm_1 (LSTM)                (None, 18, 512)           2099200   
_________________________________________________________________
dropout_1 (Dropout)          (None, 18, 512)           0         
_________________________________________________________________
lstm_2 (LSTM)                (None, 512)               2099200   
_________________________________________________________________
dropout_2 (Dropout)          (None, 512)               0         
_________________________________________________________________
dense (Dense)                (None, 2)                 1026      
_________________________________________________________________
activation (Activation)      (None, 2)                 0         
=================================================================
Total params: 5,864,450
Trainable params: 5,864,450
Non-trainable params: 0
_________________________________________________________________
male      144371
female    103889
Name: gender, dtype: int64
male      36155
female    25911
Name: gender, dtype: int64
Epoch 1/100
  1/101 [..............................] - ETA: 1
…
